…
lmente conectadas\n","model.add(Dense(64, activation='relu'))\n","model.add(Dropout(0.2)) # utiliza o dropout para melhorar o processo de treinamento e evitar under/overfitting\n","model.add(Dense(10,activation='softmax'))\n","\n","model.summary()"],"execution_count":103,"outputs":[{"output_type":"stream","name":"stdout","text":["Model: \"sequential_10\"\n","_________________________________________________________________\n","Layer (type)                 Output Shape              Param #   \n","=================================================================\n","conv2d_30 (Conv2D)           (None, 16, 16, 128)       1664      \n","_________________________________________________________________\n","max_pooling2d_30 (MaxPooling (None, 8, 8, 128)         0         \n","_________________________________________________________________\n","conv2d_31 (Conv2D)           (None, 7, 7, 128)         65664     \n","_________________________________________________________________\n","batch_normalization_10 (Batc (None, 7, 7, 128)         512       \n","_________________________________________________________________\n","max_pooling2d_31 (MaxPooling (None, 7, 7, 128)         0         \n","_________________________________________________________________\n","dropout_10 (Dropout)         (None, 7, 7, 128)         0         \n","_________________________________________________________________\n","conv2d_32 (Conv2D)           (None, 6, 6, 128)         65664     \n","_________________________________________________________________\n","batch_normalization_11 (Batc (None, 6, 6, 128)         512       \n","_________________________________________________________________\n","max_pooling2d_32 (MaxPooling (None, 3, 3, 128)         0         \n","_________________________________________________________________\n","flatten_10 (Flatten)         (None, 1152)              0         \n","_________________________________________________________________\n","dense_20 (Dense)             (None, 256)               295168    \n","_________________________________________________________________\n","dropout_11 (Dropout)         (None, 256)               0         \n","_________________________________________________________________\n","dense_21 (Dense)             (None, 10)                2570      \n","=================================================================\n","Total params: 431,754\n","Trainable params: 431,242\n","Non-trainable params: 512\n","_________________________________________________________________\n"]}]},{"cell_type":"code","metadata":{"id":"on0aQksZY-BE","executionInfo":{"status":"ok","timestamp":1635719710960,"user_tz":180,"elapsed":35,"user":{"displayName":"D
…
